…
2024-05-31 02:26:40.596905: I tensorflow/core/common_runtime/gpu/gpu_device.cc:1616] Created device /job:localhost/replica:0/task:0/device:GPU:0 with 3970 MB memory:  -> device: 0, name: NVIDIA GeForce GTX 1660 SUPER, pci bus id: 0000:01:00.0, compute capability: 7.5
Model: "ResNetLight"
__________________________________________________________________________________________________
 Layer (type)                   Output Shape         Param #     Connected to
==================================================================================================
 image (InputLayer)             [(None, 128, 128, 3  0           []
                                )]

 gaussian_noise (GaussianNoise)  (None, 128, 128, 3)  0          ['image[0][0]']

 random_brightness (RandomBrigh  (None, 128, 128, 3)  0          ['gaussian_noise[0][0]']
 tness)

 zero_padding2d (ZeroPadding2D)  (None, 134, 134, 3)  0          ['random_brightness[0][0]']

 conv1_1_1_conv (Conv2D)        (None, 64, 64, 64)   9472        ['zero_padding2d[0][0]']

 conv1_1_1_nb (BatchNormalizati  (None, 64, 64, 64)  256         ['conv1_1_1_conv[0][0]']
 on)

 activation (Activation)        (None, 64, 64, 64)   0           ['conv1_1_1_nb[0][0]']

 max_pooling2d (MaxPooling2D)   (None, 31, 31, 64)   0           ['activation[0][0]']

 conv2_1_1_conv (Conv2D)        (None, 31, 31, 64)   4160        ['max_pooling2d[0][0]']

 conv2_1_1_bn (BatchNormalizati  (None, 31, 31, 64)  256         ['conv2_1_1_conv[0][0]']
 on)

 conv2_1_1_elu (Activation)     (None, 31, 31, 64)   0           ['conv2_1_1_bn[0][0]']

 conv2_1_2_conv (Conv2D)        (None, 31, 31, 64)   36928       ['conv2_1_1_elu[0][0]']

 conv2_1_2_bn (BatchNormalizati  (None, 31, 31, 64)  256         ['conv2_1_2_conv[0][0]']
 on)

 conv2_1_2_elu (Activation)     (None, 31, 31, 64)   0           ['conv2_1_2_bn[0][0]']

 conv2_1_3_conv (Conv2D)        (None, 31, 31, 256)  16640       ['conv2_1_2_elu[0][0]']

 conv2_1_short_conv (Conv2D)    (None, 31, 31, 256)  16640       ['max_pooling2d[0][0]']

 conv2_1_3_bn (BatchNormalizati  (None, 31, 31, 256)  1024       ['conv2_1_3_conv[0][0]']
 on)

 conv2_1_short_bn (BatchNormali  (None, 31, 31, 256)  1024       ['conv2_1_short_conv[0][0]']
 zation)

 add (Add)                      (None, 31, 31, 256)  0           ['conv2_1_3_bn[0][0]',
                                                                  'conv2_1_short_bn[0][0]']

 conv2_1_3_elu (Activation)     (None, 31, 31, 256)  0           ['add[0][0]']

 conv2_2_1_conv (Conv2D)        (None, 31, 31, 64)   16448       ['conv2_1_3_elu[0][0]']

 conv2_2_1_bn (BatchNormalizati  (None, 31, 31, 64)  256         ['conv2_2_1_conv[0][0]']
 on)

 conv2_2_1_elu (Activation)     (None, 31, 31, 64)   0           ['conv2_2_1_bn[0][0]']

 conv2_2_2_conv (Conv2D)        (None, 31, 31, 64)   36928       ['conv2_2_1_elu[0][0]']

 conv2_2_2_bn (BatchNormalizati  (None, 31, 31, 64)  256         ['conv2_2_2_conv[0][0]']
 on)

 activation_1 (Activation)      (None, 31, 31, 64)   0           ['conv2_2_2_bn[0][0]']

 conv2_2_3_conv (Conv2D)        (None, 31, 31, 256)  16640       ['activation_1[0][0]']

 conv2_2_3_bn (BatchNormalizati  (None, 31, 31, 256)  1024       ['conv2_2_3_conv[0][0]']
 on)

 add_1 (Add)                    (None, 31, 31, 256)  0           ['conv2_2_3_bn[0][0]',
                                                                  'conv2_1_3_elu[0][0]']

 conv2_2_3_elu (Activation)     (None, 31, 31, 256)  0           ['add_1[0][0]']

 conv2_3_1_conv (Conv2D)        (None, 31, 31, 64)   16448       ['conv2_2_3_elu[0][0]']

 conv2_3_1_bn (BatchNormalizati  (None, 31, 31, 64)  256         ['conv2_3_1_conv[0][0]']
 on)

 conv2_3_1_elu (Activation)     (None, 31, 31, 64)   0           ['conv2_3_1_bn[0][0]']

 conv2_3_2_conv (Conv2D)        (None, 31, 31, 64)   36928       ['conv2_3_1_elu[0][0]']

 conv2_3_2_bn (BatchNormalizati  (None, 31, 31, 64)  256         ['conv2_3_2_conv[0][0]']
 on)

 activation_2 (Activation)      (None, 31, 31, 64)   0           ['conv2_3_2_bn[0][0]']

 conv2_3_3_conv (Conv2D)        (None, 31, 31, 256)  16640       ['activation_2[0][0]']

 conv2_3_3_bn (BatchNormalizati  (None, 31, 31, 256)  1024       ['conv2_3_3_conv[0][0]']
 on)

 add_2 (Add)                    (None, 31, 31, 256)  0           ['conv2_3_3_bn[0][0]',
                                                                  'conv2_2_3_elu[0][0]']

 conv2_3_3_elu (Activation)     (None, 31, 31, 256)  0           ['add_2[0][0]']

 conv3_1_1_conv (Conv2D)        (None, 16, 16, 128)  32896       ['conv2_3_3_elu[0][0]']

 conv3_1_1_bn (BatchNormalizati  (None, 16, 16, 128)  512        ['conv3_1_1_conv[0][0]']
 on)

 conv3_1_1_elu (Activation)     (None, 16, 16, 128)  0           ['conv3_1_1_bn[0][0]']

 conv3_1_2_conv (Conv2D)        (None, 16, 16, 128)  147584      ['conv3_1_1_elu[0][0]']

 conv3_1_2_bn (BatchNormalizati  (None, 16, 16, 128)  512        ['conv3_1_2_conv[0][0]']
 on)

 conv3_1_2_elu (Activation)     (None, 16, 16, 128)  0           ['conv3_1_2_bn[0][0]']

 conv3_1_3_conv (Conv2D)        (None, 16, 16, 512)  66048       ['conv3_1_2_elu[0][0]']

 conv3_1_short_conv (Conv2D)    (None, 16, 16, 512)  131584      ['conv2_3_3_elu[0][0]']

 conv3_1_3_bn (BatchNormalizati  (None, 16, 16, 512)  2048       ['conv3_1_3_conv[0][0]']
 on)

 conv3_1_short_bn (BatchNormali  (None, 16, 16, 512)  2048       ['conv3_1_short_conv[0][0]']
 zation)

 add_3 (Add)                    (None, 16, 16, 512)  0           ['conv3_1_3_bn[0][0]',
                                                                  'conv3_1_short_bn[0][0]']

 conv3_1_3_elu (Activation)     (None, 16, 16, 512)  0           ['add_3[0][0]']

 conv3_2_1_conv (Conv2D)        (None, 16, 16, 128)  65664       ['conv3_1_3_elu[0][0]']

 conv3_2_1_bn (BatchNormalizati  (None, 16, 16, 128)  512        ['conv3_2_1_conv[0][0]']
 on)

 conv3_2_1_elu (Activation)     (None, 16, 16, 128)  0           ['conv3_2_1_bn[0][0]']

 conv3_2_2_conv (Conv2D)        (None, 16, 16, 128)  147584      ['conv3_2_1_elu[0][0]']

 conv3_2_2_bn (BatchNormalizati  (None, 16, 16, 128)  512        ['conv3_2_2_conv[0][0]']
 on)

 activation_3 (Activation)      (None, 16, 16, 128)  0           ['conv3_2_2_bn[0][0]']

 conv3_2_3_conv (Conv2D)        (None, 16, 16, 512)  66048       ['activation_3[0][0]']

 conv3_2_3_bn (BatchNormalizati  (None, 16, 16, 512)  2048       ['conv3_2_3_conv[0][0]']
 on)

 add_4 (Add)                    (None, 16, 16, 512)  0           ['conv3_2_3_bn[0][0]',
                                                                  'conv3_1_3_elu[0][0]']

 conv3_2_3_elu (Activation)     (None, 16, 16, 512)  0           ['add_4[0][0]']

 conv3_3_1_conv (Conv2D)        (None, 16, 16, 128)  65664       ['conv3_2_3_elu[0][0]']

 conv3_3_1_bn (BatchNormalizati  (None, 16, 16, 128)  512        ['conv3_3_1_conv[0][0]']
 on)

 conv3_3_1_elu (Activation)     (None, 16, 16, 128)  0           ['conv3_3_1_bn[0][0]']

 conv3_3_2_conv (Conv2D)        (None, 16, 16, 128)  147584      ['conv3_3_1_elu[0][0]']

 conv3_3_2_bn (BatchNormalizati  (None, 16, 16, 128)  512        ['conv3_3_2_conv[0][0]']
 on)

 activation_4 (Activation)      (None, 16, 16, 128)  0           ['conv3_3_2_bn[0][0]']

 conv3_3_3_conv (Conv2D)        (None, 16, 16, 512)  66048       ['activation_4[0][0]']

 conv3_3_3_bn (BatchNormalizati  (None, 16, 16, 512)  2048       ['conv3_3_3_conv[0][0]']
 on)

 add_5 (Add)                    (None, 16, 16, 512)  0           ['conv3_3_3_bn[0][0]',
                                                                  'conv3_2_3_elu[0][0]']

 conv3_3_3_elu (Activation)     (None, 16, 16, 512)  0           ['add_5[0][0]']

 conv3_4_1_conv (Conv2D)        (None, 16, 16, 128)  65664       ['conv3_3_3_elu[0][0]']

 conv3_4_1_bn (BatchNormalizati  (None, 16, 16, 128)  512        ['conv3_4_1_conv[0][0]']
 on)

 conv3_4_1_elu (Activation)     (None, 16, 16, 128)  0           ['conv3_4_1_bn[0][0]']

 conv3_4_2_conv (Conv2D)        (None, 16, 16, 128)  147584      ['conv3_4_1_elu[0][0]']

 conv3_4_2_bn (BatchNormalizati  (None, 16, 16, 128)  512        ['conv3_4_2_conv[0][0]']
 on)

 activation_5 (Activation)      (None, 16, 16, 128)  0           ['conv3_4_2_bn[0][0]']

 conv3_4_3_conv (Conv2D)        (None, 16, 16, 512)  66048       ['activation_5[0][0]']

 conv3_4_3_bn (BatchNormalizati  (None, 16, 16, 512)  2048       ['conv3_4_3_conv[0][0]']
 on)

 add_6 (Add)                    (None, 16, 16, 512)  0           ['conv3_4_3_bn[0][0]',
                                                                  'conv3_3_3_elu[0][0]']

 conv3_4_3_elu (Activation)     (None, 16, 16, 512)  0           ['add_6[0][0]']

 avg_pool (AveragePooling2D)    (None, 8, 8, 512)    0           ['conv3_4_3_elu[0][0]']

 flatten (Flatten)              (None, 32768)        0           ['avg_pool[0][0]']

 info (InputLayer)              [(None, 19)]         0           []

 concatenate (Concatenate)      (None, 32787)        0           ['flatten[0][0]',
                                                                  'info[0][0]']

 batch_normalization (BatchNorm  (None, 32787)       131148      ['concatenate[0][0]']
 alization)

 dense (Dense)                  (None, 64)           2098432     ['batch_normalization[0][0]']

 fc_1 (Activation)              (None, 64)           0           ['dense[0][0]']

 pixel_prediction (Dense)       (None, 2)            130         ['fc_1[0][0]']

==================================================================================================
Total params: 3,689,806
Trainable params: 3,614,120
Non-trainable params: 75,686
__________________________________________________________________________________________________
Epoch 1/100
WARNING:tensorflow:Using a while_loop for converting RngReadAndSkip cause there is no registered converter for this op.
…
