…
 image (InputLayer)             [(None, 128, 128, 3  0           []
                                )]

 conv2d (Conv2D)                (None, 128, 128, 64  9472        ['image[0][0]']
                                )

 batch_normalization (BatchNorm  (None, 128, 128, 64  256        ['conv2d[0][0]']
 alization)                     )

 conv2d_1 (Conv2D)              (None, 128, 128, 12  204928      ['batch_normalization[0][0]']
                                8)

 batch_normalization_1 (BatchNo  (None, 128, 128, 12  512        ['conv2d_1[0][0]']
 rmalization)                   8)

 max_pooling2d (MaxPooling2D)   (None, 42, 42, 128)  0           ['batch_normalization_1[0][0]']

 conv2d_2 (Conv2D)              (None, 42, 42, 64)   204864      ['max_pooling2d[0][0]']

 batch_normalization_2 (BatchNo  (None, 42, 42, 64)  256         ['conv2d_2[0][0]']
 rmalization)

 conv2d_3 (Conv2D)              (None, 42, 42, 32)   18464       ['batch_normalization_2[0][0]']

 batch_normalization_3 (BatchNo  (None, 42, 42, 32)  128         ['conv2d_3[0][0]']
 rmalization)

 max_pooling2d_1 (MaxPooling2D)  (None, 14, 14, 32)  0           ['batch_normalization_3[0][0]']

 flatten (Flatten)              (None, 6272)         0           ['max_pooling2d_1[0][0]']

 info (InputLayer)              [(None, 5)]          0           []

 concatenate (Concatenate)      (None, 6277)         0           ['flatten[0][0]',
                                                                  'info[0][0]']

 dense (Dense)                  (None, 256)          1607168     ['concatenate[0][0]']

 batch_normalization_4 (BatchNo  (None, 256)         1024        ['dense[0][0]']
 rmalization)

 dense_1 (Dense)                (None, 128)          32896       ['batch_normalization_4[0][0]']

 batch_normalization_5 (BatchNo  (None, 128)         512         ['dense_1[0][0]']
 rmalization)

 dense_2 (Dense)                (None, 64)           8256        ['batch_normalization_5[0][0]']

 batch_normalization_6 (BatchNo  (None, 64)          256         ['dense_2[0][0]']
 rmalization)

 pixel_prediction (Dense)       (None, 2)            130         ['batch_normalization_6[0][0]']

==================================================================================================
Total params: 2,089,122
Trainable params: 2,087,650
Non-trainable params: 1,472
__________________________________________________________________________________________________
Epoch 1/5
2024-05-25 22:57:11.274556: I tensorflow/stream_executor/cuda/cuda_dnn.cc:384] Loaded cuDNN version 8100
…
For pog corrected train3.csv mse_loss: 3.7427
For pog corrected validation3.csv mse_loss: 4.8026
For pog corrected test3.csv mse_loss: 4.9070

------------------------------
Model: "model"
__________________________________________________________________________________________________
 Layer (type)                   Output Shape         Param #     Connected to
==================================================================================================
 image (InputLayer)             [(None, 128, 128, 3  0           []
                                )]

 gaussian_noise (GaussianNoise)  (None, 128, 128, 3)  0          ['image[0][0]']

 conv2d (Conv2D)                (None, 128, 128, 64  9472        ['gaussian_noise[0][0]']
                                )

 batch_normalization (BatchNorm  (None, 128, 128, 64  256        ['conv2d[0][0]']
 alization)                     )

 conv2d_1 (Conv2D)              (None, 128, 128, 12  204928      ['batch_normalization[0][0]']
                                8)

 batch_normalization_1 (BatchNo  (None, 128, 128, 12  512        ['conv2d_1[0][0]']
 rmalization)                   8)

 max_pooling2d (MaxPooling2D)   (None, 42, 42, 128)  0           ['batch_normalization_1[0][0]']

 conv2d_2 (Conv2D)              (None, 42, 42, 64)   204864      ['max_pooling2d[0][0]']

 batch_normalization_2 (BatchNo  (None, 42, 42, 64)  256         ['conv2d_2[0][0]']
 rmalization)

 conv2d_3 (Conv2D)              (None, 42, 42, 32)   18464       ['batch_normalization_2[0][0]']

 batch_normalization_3 (BatchNo  (None, 42, 42, 32)  128         ['conv2d_3[0][0]']
 rmalization)

 max_pooling2d_1 (MaxPooling2D)  (None, 14, 14, 32)  0           ['batch_normalization_3[0][0]']

 flatten (Flatten)              (None, 6272)         0           ['max_pooling2d_1[0][0]']

 info (InputLayer)              [(None, 5)]          0           []

 concatenate (Concatenate)      (None, 6277)         0           ['flatten[0][0]',
                                                                  'info[0][0]']

 dense (Dense)                  (None, 256)          1607168     ['concatenate[0][0]']

 batch_normalization_4 (BatchNo  (None, 256)         1024        ['dense[0][0]']
 rmalization)

 dense_1 (Dense)                (None, 128)          32896       ['batch_normalization_4[0][0]']

 batch_normalization_5 (BatchNo  (None, 128)         512         ['dense_1[0][0]']
 rmalization)

 dense_2 (Dense)                (None, 64)           8256        ['batch_normalization_5[0][0]']

 batch_normalization_6 (BatchNo  (None, 64)          256         ['dense_2[0][0]']
 rmalization)

 pixel_prediction (Dense)       (None, 2)            130         ['batch_normalization_6[0][0]']

==================================================================================================
Total params: 2,089,122
Trainable params: 2,087,650
Non-trainable params: 1,472
__________________________________________________________________________________________________
2024-05-25 23:50:14.163606: I tensorflow/stream_executor/cuda/cuda_dnn.cc:384] Loaded cuDNN version 8100
…
For Simple-2-(128, 128):
For pog corrected train3.csv mse_loss: 0.1327
For pog corrected validation3.csv mse_loss: 0.1388
For pog corrected test3.csv mse_loss: 0.1439


For Simple-4-(128, 128):
Model: "model"
__________________________________________________________________________________________________
 Layer (type)                   Output Shape         Param #     Connected to
==================================================================================================
 image (InputLayer)             [(None, 128, 128, 3  0           []
                                )]

 gaussian_noise (GaussianNoise)  (None, 128, 128, 3)  0          ['image[0][0]']

 conv2d (Conv2D)                (None, 128, 128, 64  9472        ['gaussian_noise[0][0]']
                                )

 batch_normalization (BatchNorm  (None, 128, 128, 64  256        ['conv2d[0][0]']
 alization)                     )

 conv2d_1 (Conv2D)              (None, 128, 128, 12  204928      ['batch_normalization[0][0]']
                                8)

 batch_normalization_1 (BatchNo  (None, 128, 128, 12  512        ['conv2d_1[0][0]']
 rmalization)                   8)

 max_pooling2d (MaxPooling2D)   (None, 42, 42, 128)  0           ['batch_normalization_1[0][0]']

 conv2d_2 (Conv2D)              (None, 42, 42, 64)   204864      ['max_pooling2d[0][0]']

 batch_normalization_2 (BatchNo  (None, 42, 42, 64)  256         ['conv2d_2[0][0]']
 rmalization)

 conv2d_3 (Conv2D)              (None, 42, 42, 32)   18464       ['batch_normalization_2[0][0]']

 batch_normalization_3 (BatchNo  (None, 42, 42, 32)  128         ['conv2d_3[0][0]']
 rmalization)

 max_pooling2d_1 (MaxPooling2D)  (None, 14, 14, 32)  0           ['batch_normalization_3[0][0]']

 dropout (Dropout)              (None, 14, 14, 32)   0           ['max_pooling2d_1[0][0]']

 flatten (Flatten)              (None, 6272)         0           ['dropout[0][0]']

 info (InputLayer)              [(None, 5)]          0           []

 concatenate (Concatenate)      (None, 6277)         0           ['flatten[0][0]',
                                                                  'info[0][0]']

 dense (Dense)                  (None, 256)          1607168     ['concatenate[0][0]']

 batch_normalization_4 (BatchNo  (None, 256)         1024        ['dense[0][0]']
 rmalization)

 dense_1 (Dense)                (None, 128)          32896       ['batch_normalization_4[0][0]']

 batch_normalization_5 (BatchNo  (None, 128)         512         ['dense_1[0][0]']
 rmalization)

 dense_2 (Dense)                (None, 64)           8256        ['batch_normalization_5[0][0]']

 batch_normalization_6 (BatchNo  (None, 64)          256         ['dense_2[0][0]']
 rmalization)

 pixel_prediction (Dense)       (None, 2)            130         ['batch_normalization_6[0][0]']

==================================================================================================
Total params: 2,089,122
Trainable params: 2,087,650
Non-trainable params: 1,472
__________________________________________________________________________________________________
Epoch 1/100
2024-05-26 01:19:48.850842: I tensorflow/stream_executor/cuda/cuda_dnn.cc:384] Loaded cuDNN version 8100
…
266/266 [==============================] - 317s 1s/step - loss: 0.0076 - mean_absolute_error: 0.0791 - val_loss: 0.0245 - val_mean_absolute_error: 0.1580

For pog corrected train3.csv mse_loss: 0.0082
For pog corrected validation3.csv mse_loss: 0.0331
For pog corrected test3.csv mse_loss: 0.0310

For model Simple V6
Model: "model"
__________________________________________________________________________________________________
 Layer (type)                   Output Shape         Param #     Connected to
==================================================================================================
 image (InputLayer)             [(None, 128, 128, 3  0           []
                                )]

 gaussian_noise (GaussianNoise)  (None, 128, 128, 3)  0          ['image[0][0]']

 conv2d (Conv2D)                (None, 126, 126, 64  1792        ['gaussian_noise[0][0]']
                                )

 batch_normalization (BatchNorm  (None, 126, 126, 64  256        ['conv2d[0][0]']
 alization)                     )

 conv2d_1 (Conv2D)              (None, 122, 122, 12  204928      ['batch_normalization[0][0]']
                                8)

 batch_normalization_1 (BatchNo  (None, 122, 122, 12  512        ['conv2d_1[0][0]']
 rmalization)                   8)

 conv2d_2 (Conv2D)              (None, 122, 122, 96  12384       ['batch_normalization_1[0][0]']
                                )

 batch_normalization_2 (BatchNo  (None, 122, 122, 96  384        ['conv2d_2[0][0]']
 rmalization)                   )

 max_pooling2d (MaxPooling2D)   (None, 60, 60, 96)   0           ['batch_normalization_2[0][0]']

 dropout (Dropout)              (None, 60, 60, 96)   0           ['max_pooling2d[0][0]']

 conv2d_3 (Conv2D)              (None, 58, 58, 64)   55360       ['dropout[0][0]']

 batch_normalization_3 (BatchNo  (None, 58, 58, 64)  256         ['conv2d_3[0][0]']
 rmalization)

 conv2d_4 (Conv2D)              (None, 28, 28, 128)  73856       ['batch_normalization_3[0][0]']

 batch_normalization_4 (BatchNo  (None, 28, 28, 128)  512        ['conv2d_4[0][0]']
 rmalization)

 conv2d_5 (Conv2D)              (None, 28, 28, 64)   8256        ['batch_normalization_4[0][0]']

 batch_normalization_5 (BatchNo  (None, 28, 28, 64)  256         ['conv2d_5[0][0]']
 rmalization)

 max_pooling2d_1 (MaxPooling2D)  (None, 9, 9, 64)    0           ['batch_normalization_5[0][0]']

 dropout_1 (Dropout)            (None, 9, 9, 64)     0           ['max_pooling2d_1[0][0]']

 flatten (Flatten)              (None, 5184)         0           ['dropout_1[0][0]']

 info (InputLayer)              [(None, 19)]         0           []

 concatenate (Concatenate)      (None, 5203)         0           ['flatten[0][0]',
                                                                  'info[0][0]']

 dense (Dense)                  (None, 256)          1332224     ['concatenate[0][0]']

 dropout_2 (Dropout)            (None, 256)          0           ['dense[0][0]']

 batch_normalization_6 (BatchNo  (None, 256)         1024        ['dropout_2[0][0]']
 rmalization)

 dense_1 (Dense)                (None, 128)          32896       ['batch_normalization_6[0][0]']

 batch_normalization_7 (BatchNo  (None, 128)         512         ['dense_1[0][0]']
 rmalization)

 dense_2 (Dense)                (None, 64)           8256        ['batch_normalization_7[0][0]']

 batch_normalization_8 (BatchNo  (None, 64)          256         ['dense_2[0][0]']
 rmalization)

 pixel_prediction (Dense)       (None, 2)            130         ['batch_normalization_8[0][0]']

==================================================================================================
Total params: 1,734,050
Trainable params: 1,732,066
Non-trainable params: 1,984
__________________________________________________________________________________________________
Epoch 1/100
2024-05-29 02:45:39.678940: I tensorflow/stream_executor/cuda/cuda_dnn.cc:384] Loaded cuDNN version 8100
…
